Expt: experiments/Classifier_OSCN/2023-11-29T11:08:57.119891s0scmhlt
RunID: 2023-11-29T11:08:57.119891
----------------------------------------------------------------
        Layer (type)               Output Shape         Param #
================================================================
            Conv2d-1           [-1, 32, 16, 16]           1,568
              ReLU-2           [-1, 32, 16, 16]               0
            Conv2d-3             [-1, 64, 8, 8]          32,832
              ReLU-4             [-1, 64, 8, 8]               0
            Conv2d-5            [-1, 128, 4, 4]         131,200
              ReLU-6            [-1, 128, 4, 4]               0
            Conv2d-7              [-1, 8, 1, 1]          16,392
            Linear-8                    [-1, 9]              81
================================================================
Total params: 182,073
Trainable params: 182,073
Non-trainable params: 0
----------------------------------------------------------------
Input size (MB): 0.01
Forward/backward pass size (MB): 0.22
Params size (MB): 0.69
Estimated Total Size (MB): 0.93
----------------------------------------------------------------
====> [MM-VAE] Time:   2.547s or 00:00:02
