…
 'model': 'Classifier_CMNIST',
 'no_analytics': False,
 'no_cuda': False,
 'num_hidden_layers': 4,
 'obj': 'cross',
 'pretrained_path': './rslt/parameter-search-32/Classifier_CMNIST/classifier-cmnist',
 'print_freq': 100,
 'run_id': 'classifier-cmnist',
 'run_type': 'train',
 'seed': 4,
 'use_cnn': 'mlp',
 'use_conditional': False}
Encoder based on MLP was constructed.
----------------------------------------------------------------
        Layer (type)               Output Shape         Param #
================================================================
            Linear-1                  [-1, 400]         941,200
              ReLU-2                  [-1, 400]               0
            Linear-3                  [-1, 400]         160,400
              ReLU-4                  [-1, 400]               0
            Linear-5                  [-1, 400]         160,400
              ReLU-6                  [-1, 400]               0
            Linear-7                  [-1, 400]         160,400
              ReLU-8                  [-1, 400]               0
            Linear-9                   [-1, 20]           8,020
           Linear-10                   [-1, 20]           8,020
           EncMLP-11       [[-1, 20], [-1, 20]]               0
           Linear-12                    [-1, 9]             189
================================================================
Total params: 1,438,629
Trainable params: 1,438,629
Non-trainable params: 0
----------------------------------------------------------------
Input size (MB): 0.01
Forward/backward pass size (MB): 0.02
Params size (MB): 5.49
Estimated Total Size (MB): 5.52
----------------------------------------------------------------
Model is initialized without loading.
…
 'looser': False,
 'model': 'Classifier_OSCN',
 'no_analytics': False,
 'no_cuda': False,
 'num_hidden_layers': 4,
 'obj': 'cross',
 'pretrained_path': './rslt/parameter-search-32/Classifier_OSCN/classifier-oscn',
 'print_freq': 100,
 'run_id': 'classifier-oscn',
 'run_type': 'train',
 'seed': 4,
 'use_cnn': 'mlp',
 'use_conditional': False}
Encoder based on MLP was constructed.
----------------------------------------------------------------
        Layer (type)               Output Shape         Param #
================================================================
            Linear-1                  [-1, 400]       1,229,200
              ReLU-2                  [-1, 400]               0
            Linear-3                  [-1, 400]         160,400
              ReLU-4                  [-1, 400]               0
            Linear-5                  [-1, 400]         160,400
              ReLU-6                  [-1, 400]               0
            Linear-7                  [-1, 400]         160,400
              ReLU-8                  [-1, 400]               0
            Linear-9                   [-1, 20]           8,020
           Linear-10                   [-1, 20]           8,020
           EncMLP-11       [[-1, 20], [-1, 20]]               0
           Linear-12                    [-1, 9]             189
================================================================
Total params: 1,726,629
Trainable params: 1,726,629
Non-trainable params: 0
----------------------------------------------------------------
Input size (MB): 0.01
Forward/backward pass size (MB): 0.02
Params size (MB): 6.59
Estimated Total Size (MB): 6.62
----------------------------------------------------------------
Model is initialized without loading.
…
 'latent_dim': 20,
 'learn_prior': True,
 'llik_scaling': 0.0,
 'logp': False,
 'looser': False,
 'model': 'VAE_CMNIST',
 'no_analytics': False,
 'no_cuda': False,
 'num_hidden_layers': 4,
 'obj': 'dreg',
 'print_freq': 100,
 'run_type': 'train',
 'seed': 4,
 'use_cnn': 'mlp',
 'use_conditional': False}
Encoder based on MLP was constructed.
Decoder based on MLP was constructed.
----------------------------------------------------------------
        Layer (type)               Output Shape         Param #
================================================================
            Linear-1                  [-1, 400]         941,200
              ReLU-2                  [-1, 400]               0
            Linear-3                  [-1, 400]         160,400
              ReLU-4                  [-1, 400]               0
            Linear-5                  [-1, 400]         160,400
              ReLU-6                  [-1, 400]               0
            Linear-7                  [-1, 400]         160,400
              ReLU-8                  [-1, 400]               0
            Linear-9                   [-1, 20]           8,020
           Linear-10                   [-1, 20]           8,020
           EncMLP-11       [[-1, 20], [-1, 20]]               0
           Linear-12               [-1, 2, 400]           8,400
             ReLU-13               [-1, 2, 400]               0
           Linear-14               [-1, 2, 400]         160,400
             ReLU-15               [-1, 2, 400]               0
           Linear-16               [-1, 2, 400]         160,400
             ReLU-17               [-1, 2, 400]               0
           Linear-18               [-1, 2, 400]         160,400
             ReLU-19               [-1, 2, 400]               0
           Linear-20              [-1, 2, 2352]         943,152
Print of model summary was skipped because setting an array element with a sequence. The requested array has an inhomogeneous shape after 1 dimensions. The detected shape was (2,) + inhomogeneous part.
Model is initialized without loading.

length of dataset (train): 120000 
length of dataset (test): 4000
objectives: dreg 
t_objectives: iwae
iteration 0000: loss: 1987.625
iteration 0100: loss: 1573.352
…
 'latent_dim': 20,
 'learn_prior': True,
 'llik_scaling': 0.0,
 'logp': False,
 'looser': False,
 'model': 'VAE_OSCN',
 'no_analytics': False,
 'no_cuda': False,
 'num_hidden_layers': 4,
 'obj': 'dreg',
 'print_freq': 100,
 'run_type': 'train',
 'seed': 4,
 'use_cnn': 'mlp',
 'use_conditional': False}
Encoder based on MLP was constructed.
Decoder based on MLP was constructed.
----------------------------------------------------------------
        Layer (type)               Output Shape         Param #
================================================================
            Linear-1                  [-1, 400]       1,229,200
              ReLU-2                  [-1, 400]               0
            Linear-3                  [-1, 400]         160,400
              ReLU-4                  [-1, 400]               0
            Linear-5                  [-1, 400]         160,400
              ReLU-6                  [-1, 400]               0
            Linear-7                  [-1, 400]         160,400
              ReLU-8                  [-1, 400]               0
            Linear-9                   [-1, 20]           8,020
           Linear-10                   [-1, 20]           8,020
           EncMLP-11       [[-1, 20], [-1, 20]]               0
           Linear-12               [-1, 2, 400]           8,400
             ReLU-13               [-1, 2, 400]               0
           Linear-14               [-1, 2, 400]         160,400
             ReLU-15               [-1, 2, 400]               0
           Linear-16               [-1, 2, 400]         160,400
             ReLU-17               [-1, 2, 400]               0
           Linear-18               [-1, 2, 400]         160,400
             ReLU-19               [-1, 2, 400]               0
           Linear-20              [-1, 2, 3072]       1,231,872
Print of model summary was skipped because setting an array element with a sequence. The requested array has an inhomogeneous shape after 1 dimensions. The detected shape was (2,) + inhomogeneous part.
Model is initialized without loading.

length of dataset (train): 120000 
length of dataset (test): 4000
objectives: dreg 
t_objectives: iwae
iteration 0000: loss: 2622.545
iteration 0100: loss: 2118.262
…
    result = fn(storage, location)
  File "/home/taka/.pyenv/versions/3.9.1/lib/python3.9/site-packages/torch/serialization.py", line 182, in _cuda_deserialize
    device = validate_cuda_device(location)
  File "/home/taka/.pyenv/versions/3.9.1/lib/python3.9/site-packages/torch/serialization.py", line 173, in validate_cuda_device
    raise RuntimeError('Attempting to deserialize object on CUDA device '
RuntimeError: Attempting to deserialize object on CUDA device 0 but torch.cuda.device_count() is 0. Please use torch.load with map_location to map your storages to an existing device.

            Linear-5                  [-1, 400]         160,400
              ReLU-6                  [-1, 400]               0
            Linear-7                  [-1, 400]         160,400
              ReLU-8                  [-1, 400]               0
            Linear-9                   [-1, 20]           8,020
           Linear-10                   [-1, 20]           8,020
           EncMLP-11       [[-1, 20], [-1, 20]]               0
           Linear-12               [-1, 2, 400]           8,400
             ReLU-13               [-1, 2, 400]               0
           Linear-14               [-1, 2, 400]         160,400
             ReLU-15               [-1, 2, 400]               0
           Linear-16               [-1, 2, 400]         160,400
             ReLU-17               [-1, 2, 400]               0
           Linear-18               [-1, 2, 400]         160,400
             ReLU-19               [-1, 2, 400]               0
           Linear-20              [-1, 2, 2352]         943,152
Print of model summary was skipped because setting an array element with a sequence. The requested array has an inhomogeneous shape after 1 dimensions. The detected shape was (2,) + inhomogeneous part.
Loading model VAE_CMNIST from ./rslt/parameter-search-32/VAE_CMNIST/vae_cmnist_seed_0
2023/12/19 PM 01:30:01
start time:  1702872556
end time:  1702960201
run time:  87645
