…
 'no_cuda': False,
 'num_hidden_layers': 1,
 'obj': 'cross',
 'output_dir': './rslt/test-pbs-1/Classifier_OSCN/test-classifier-oscn/train',
 'pretrained_path': '',
 'print_freq': 0,
 'run_dir': './rslt/test-pbs-1/Classifier_OSCN/test-classifier-oscn',
 'run_id': 'test-classifier-oscn',
 'run_type': 'train',
 'seed': 4,
 'use_conditional': False}


Model runner was initialized.
----------------------------------------------------------------
        Layer (type)               Output Shape         Param #
================================================================
            Conv2d-1           [-1, 32, 16, 16]           1,568
              ReLU-2           [-1, 32, 16, 16]               0
            Conv2d-3             [-1, 64, 8, 8]          32,832
              ReLU-4             [-1, 64, 8, 8]               0
            Conv2d-5            [-1, 128, 4, 4]         131,200
              ReLU-6            [-1, 128, 4, 4]               0
            Conv2d-7              [-1, 8, 1, 1]          16,392
            Linear-8                    [-1, 9]              81
================================================================
Total params: 182,073
Trainable params: 182,073
Non-trainable params: 0
----------------------------------------------------------------
Input size (MB): 0.01
Forward/backward pass size (MB): 0.22
Params size (MB): 0.69
Estimated Total Size (MB): 0.93
----------------------------------------------------------------

length of dataset (train): 120000 
…
 'no_analytics': False,
 'no_cuda': False,
 'num_hidden_layers': 1,
 'obj': 'elbo',
 'output_dir': './rslt/test-pbs-1/VAE_CMNIST/vae_cmnist_seed_0/train',
 'pretrained_path': '',
 'print_freq': 100,
 'run_dir': './rslt/test-pbs-1/VAE_CMNIST/vae_cmnist_seed_0',
 'run_id': 'vae_cmnist_seed_0',
 'run_type': 'train',
 'seed': 0,
 'use_conditional': False}


Model runner was initialized.
----------------------------------------------------------------
        Layer (type)               Output Shape         Param #
================================================================
            Linear-1                  [-1, 400]         941,200
              ReLU-2                  [-1, 400]               0
            Linear-3                   [-1, 20]           8,020
            Linear-4                   [-1, 20]           8,020
               Enc-5       [[-1, 20], [-1, 20]]               0
            Linear-6               [-1, 2, 400]           8,400
              ReLU-7               [-1, 2, 400]               0
            Linear-8              [-1, 2, 2352]         943,152
Print of model summary was skipped because can't multiply sequence by non-int of type 'list'

length of dataset (train): 120000 
length of dataset (test): 4000
objectives: elbo 
t_objectives: iwae
iteration 0000: loss: 1993.552
iteration 0100: loss: 1572.296
iteration 0200: loss: 1556.896
iteration 0300: loss: 1551.120
iteration 0400: loss: 1541.943
iteration 0500: loss: 1541.464
iteration 0600: loss: 1542.875
…
 'no_analytics': False,
 'no_cuda': False,
 'num_hidden_layers': 1,
 'obj': 'elbo',
 'output_dir': './rslt/test-pbs-1/VAE_OSCN/vae_oscn_seed_0/train',
 'pretrained_path': '',
 'print_freq': 100,
 'run_dir': './rslt/test-pbs-1/VAE_OSCN/vae_oscn_seed_0',
 'run_id': 'vae_oscn_seed_0',
 'run_type': 'train',
 'seed': 0,
 'use_conditional': False}


Model runner was initialized.
----------------------------------------------------------------
        Layer (type)               Output Shape         Param #
================================================================
            Conv2d-1           [-1, 32, 16, 16]           1,568
              ReLU-2           [-1, 32, 16, 16]               0
            Conv2d-3             [-1, 64, 8, 8]          32,832
              ReLU-4             [-1, 64, 8, 8]               0
            Conv2d-5            [-1, 128, 4, 4]         131,200
              ReLU-6            [-1, 128, 4, 4]               0
            Conv2d-7             [-1, 20, 1, 1]          40,980
            Conv2d-8             [-1, 20, 1, 1]          40,980
               Enc-9       [[-1, 20], [-1, 20]]               0
  ConvTranspose2d-10            [-1, 128, 4, 4]          41,088
             ReLU-11            [-1, 128, 4, 4]               0
  ConvTranspose2d-12             [-1, 64, 8, 8]         131,136
             ReLU-13             [-1, 64, 8, 8]               0
  ConvTranspose2d-14           [-1, 32, 16, 16]          32,800
             ReLU-15           [-1, 32, 16, 16]               0
  ConvTranspose2d-16            [-1, 3, 32, 32]           1,539
          Sigmoid-17            [-1, 3, 32, 32]               0
Print of model summary was skipped because can't multiply sequence by non-int of type 'list'

length of dataset (train): 120000 
length of dataset (test): 4000
objectives: elbo 
t_objectives: iwae
iteration 0000: loss: 2678.374
iteration 0100: loss: 2101.544
iteration 0200: loss: 2117.659
iteration 0300: loss: 2079.970
iteration 0400: loss: 2064.823
iteration 0500: loss: 2051.722
iteration 0600: loss: 2024.514
…
 'no_analytics': False,
 'no_cuda': False,
 'num_hidden_layers': 1,
 'obj': 'elbo',
 'output_dir': './rslt/test-pbs-1/VAE_CMNIST/vae_cmnist_seed_0/train',
 'pretrained_path': '',
 'print_freq': 100,
 'run_dir': './rslt/test-pbs-1/VAE_CMNIST/vae_cmnist_seed_0',
 'run_id': 'vae_cmnist_seed_0',
 'run_type': 'train',
 'seed': 0,
 'use_conditional': False}


Model runner was initialized.
----------------------------------------------------------------
        Layer (type)               Output Shape         Param #
================================================================
            Linear-1                  [-1, 400]         941,200
              ReLU-2                  [-1, 400]               0
            Linear-3                   [-1, 20]           8,020
            Linear-4                   [-1, 20]           8,020
               Enc-5       [[-1, 20], [-1, 20]]               0
            Linear-6               [-1, 2, 400]           8,400
              ReLU-7               [-1, 2, 400]               0
            Linear-8              [-1, 2, 2352]         943,152
Print of model summary was skipped because can't multiply sequence by non-int of type 'list'
Loading model VAE_CMNIST from ./rslt/test-pbs-1/VAE_CMNIST/vae_cmnist_seed_0

length of dataset (train): 120000 
length of dataset (test): 4000
objectives: elbo 
t_objectives: iwae


Model runner was initialized.
----------------------------------------------------------------
        Layer (type)               Output Shape         Param #
================================================================
            Linear-1                  [-1, 400]         941,200
              ReLU-2                  [-1, 400]               0
            Linear-3                    [-1, 8]           3,208
            Linear-4                    [-1, 9]              81
================================================================
Total params: 944,489
Trainable params: 944,489
Non-trainable params: 0
----------------------------------------------------------------
Input size (MB): 0.01
Forward/backward pass size (MB): 0.01
Params size (MB): 3.60
Estimated Total Size (MB): 3.62
----------------------------------------------------------------

length of dataset (train): 120000 
…
 'no_analytics': False,
 'no_cuda': False,
 'num_hidden_layers': 1,
 'obj': 'elbo',
 'output_dir': './rslt/test-pbs-1/VAE_OSCN/vae_oscn_seed_0/train',
 'pretrained_path': '',
 'print_freq': 100,
 'run_dir': './rslt/test-pbs-1/VAE_OSCN/vae_oscn_seed_0',
 'run_id': 'vae_oscn_seed_0',
 'run_type': 'train',
 'seed': 0,
 'use_conditional': False}


Model runner was initialized.
----------------------------------------------------------------
        Layer (type)               Output Shape         Param #
================================================================
            Conv2d-1           [-1, 32, 16, 16]           1,568
              ReLU-2           [-1, 32, 16, 16]               0
            Conv2d-3             [-1, 64, 8, 8]          32,832
              ReLU-4             [-1, 64, 8, 8]               0
            Conv2d-5            [-1, 128, 4, 4]         131,200
              ReLU-6            [-1, 128, 4, 4]               0
            Conv2d-7             [-1, 20, 1, 1]          40,980
            Conv2d-8             [-1, 20, 1, 1]          40,980
               Enc-9       [[-1, 20], [-1, 20]]               0
  ConvTranspose2d-10            [-1, 128, 4, 4]          41,088
             ReLU-11            [-1, 128, 4, 4]               0
  ConvTranspose2d-12             [-1, 64, 8, 8]         131,136
             ReLU-13             [-1, 64, 8, 8]               0
  ConvTranspose2d-14           [-1, 32, 16, 16]          32,800
             ReLU-15           [-1, 32, 16, 16]               0
  ConvTranspose2d-16            [-1, 3, 32, 32]           1,539
          Sigmoid-17            [-1, 3, 32, 32]               0
Print of model summary was skipped because can't multiply sequence by non-int of type 'list'
Loading model VAE_OSCN from ./rslt/test-pbs-1/VAE_OSCN/vae_oscn_seed_0

length of dataset (train): 120000 
length of dataset (test): 4000
objectives: elbo 
t_objectives: iwae


Model runner was initialized.
----------------------------------------------------------------
        Layer (type)               Output Shape         Param #
================================================================
            Conv2d-1           [-1, 32, 16, 16]           1,568
              ReLU-2           [-1, 32, 16, 16]               0
            Conv2d-3             [-1, 64, 8, 8]          32,832
              ReLU-4             [-1, 64, 8, 8]               0
            Conv2d-5            [-1, 128, 4, 4]         131,200
              ReLU-6            [-1, 128, 4, 4]               0
            Conv2d-7              [-1, 8, 1, 1]          16,392
            Linear-8                    [-1, 9]              81
================================================================
Total params: 182,073
Trainable params: 182,073
Non-trainable params: 0
----------------------------------------------------------------
Input size (MB): 0.01
Forward/backward pass size (MB): 0.22
Params size (MB): 0.69
Estimated Total Size (MB): 0.93
----------------------------------------------------------------

length of dataset (train): 120000 
…
