…
 'obj': 'cross',
 'output_dir': './rslt/test_loop_1/Classifier_CMNIST/test_classifier_cmnist/train',
 'pretrained_path': '',
 'print_freq': 100,
 'run_dir': './rslt/test_loop_1/Classifier_CMNIST/test_classifier_cmnist',
 'run_id': 'test_classifier_cmnist',
 'run_type': 'train',
 'seed': 4,
 'use_cnn': False,
 'use_conditional': False}
Encoder based on MLP was constructed.
----------------------------------------------------------------
        Layer (type)               Output Shape         Param #
================================================================
            Linear-1                  [-1, 400]         941,200
              ReLU-2                  [-1, 400]               0
            Linear-3                   [-1, 20]           8,020
            Linear-4                   [-1, 20]           8,020
            EncMLP-5       [[-1, 20], [-1, 20]]               0
            Linear-6                    [-1, 9]             189
================================================================
Total params: 957,429
Trainable params: 957,429
Non-trainable params: 0
----------------------------------------------------------------
Input size (MB): 0.01
Forward/backward pass size (MB): 0.00
Params size (MB): 3.65
Estimated Total Size (MB): 3.66
----------------------------------------------------------------
Model is initialized without loading.
…
 'num_hidden_layers': 2,
 'obj': 'cross',
 'output_dir': './rslt/test_loop_1/Classifier_OSCN/test_classifier_oscn/train',
 'pretrained_path': '',
 'print_freq': 100,
 'run_dir': './rslt/test_loop_1/Classifier_OSCN/test_classifier_oscn',
 'run_id': 'test_classifier_oscn',
 'run_type': 'train',
 'seed': 4,
 'use_cnn': False,
 'use_conditional': False}
Encoder based on MLP was constructed.
----------------------------------------------------------------
        Layer (type)               Output Shape         Param #
================================================================
            Linear-1                  [-1, 400]       1,229,200
              ReLU-2                  [-1, 400]               0
            Linear-3                   [-1, 20]           8,020
            Linear-4                   [-1, 20]           8,020
            EncMLP-5       [[-1, 20], [-1, 20]]               0
            Linear-6                    [-1, 9]             189
================================================================
Total params: 1,245,429
Trainable params: 1,245,429
Non-trainable params: 0
----------------------------------------------------------------
Input size (MB): 0.01
Forward/backward pass size (MB): 0.00
Params size (MB): 4.75
Estimated Total Size (MB): 4.77
----------------------------------------------------------------
Model is initialized without loading.
…
 'obj': 'elbo',
 'output_dir': './rslt/test_loop_1/VAE_CMNIST/test_vae_cmnist/train',
 'pretrained_path': '',
 'print_freq': 100,
 'run_dir': './rslt/test_loop_1/VAE_CMNIST/test_vae_cmnist',
 'run_id': 'test_vae_cmnist',
 'run_type': 'train',
 'seed': 4,
 'use_cnn': False,
 'use_conditional': False}
Encoder based on MLP was constructed.
Decoder based on MLP was constructed.
----------------------------------------------------------------
        Layer (type)               Output Shape         Param #
================================================================
            Linear-1                  [-1, 400]         941,200
              ReLU-2                  [-1, 400]               0
            Linear-3                  [-1, 400]         160,400
              ReLU-4                  [-1, 400]               0
            Linear-5                   [-1, 20]           8,020
            Linear-6                   [-1, 20]           8,020
            EncMLP-7       [[-1, 20], [-1, 20]]               0
            Linear-8               [-1, 2, 400]           8,400
              ReLU-9               [-1, 2, 400]               0
           Linear-10               [-1, 2, 400]         160,400
             ReLU-11               [-1, 2, 400]               0
           Linear-12              [-1, 2, 2352]         943,152
Print of model summary was skipped because can't multiply sequence by non-int of type 'list'
Model is initialized without loading.

length of dataset (train): 120000 
length of dataset (test): 4000
objectives: elbo 
t_objectives: iwae
iteration 0000: loss: 1988.914
iteration 0100: loss: 1578.974
iteration 0200: loss: 1559.500
iteration 0300: loss: 1553.893
iteration 0400: loss: 1562.954
iteration 0500: loss: 1554.055
…
 'num_hidden_layers': 2,
 'obj': 'elbo',
 'output_dir': './rslt/test_loop_1/VAE_OSCN/test_vae_oscn/train',
 'pretrained_path': '',
 'print_freq': 100,
 'run_dir': './rslt/test_loop_1/VAE_OSCN/test_vae_oscn',
 'run_id': 'test_vae_oscn',
 'run_type': 'train',
 'seed': 4,
 'use_cnn': False,
 'use_conditional': False}
Encoder based on MLP was constructed.
Decoder based on MLP was constructed.
----------------------------------------------------------------
        Layer (type)               Output Shape         Param #
================================================================
            Linear-1                  [-1, 400]       1,229,200
              ReLU-2                  [-1, 400]               0
            Linear-3                  [-1, 400]         160,400
              ReLU-4                  [-1, 400]               0
            Linear-5                   [-1, 20]           8,020
            Linear-6                   [-1, 20]           8,020
            EncMLP-7       [[-1, 20], [-1, 20]]               0
            Linear-8               [-1, 2, 400]           8,400
              ReLU-9               [-1, 2, 400]               0
           Linear-10               [-1, 2, 400]         160,400
             ReLU-11               [-1, 2, 400]               0
           Linear-12              [-1, 2, 3072]       1,231,872
Print of model summary was skipped because can't multiply sequence by non-int of type 'list'
Model is initialized without loading.

length of dataset (train): 120000 
length of dataset (test): 4000
objectives: elbo 
t_objectives: iwae
iteration 0000: loss: 2623.431
iteration 0100: loss: 2059.112
iteration 0200: loss: 2047.400
iteration 0300: loss: 2015.349
iteration 0400: loss: 2004.040
iteration 0500: loss: 1993.961
…
